…
 encoder_relu_1 (ReLU)          (None, 128, 32, 512  0           ['encoder_conv_layer_1[0][0]']   
                                )                                                                 
                                                                                                  
 encoder_bn_1 (BatchNormalizati  (None, 128, 32, 512  2048       ['encoder_relu_1[0][0]']         
 on)                            )                                                                 
                                                                                                  
 encoder_conv_layer_2 (Conv2D)  (None, 64, 16, 256)  1179904     ['encoder_bn_1[0][0]']           
                                                                                                  
 encoder_relu_2 (ReLU)          (None, 64, 16, 256)  0           ['encoder_conv_layer_2[0][0]']   
                                                                                                  
 encoder_bn_2 (BatchNormalizati  (None, 64, 16, 256)  1024       ['encoder_relu_2[0][0]']         
 on)                                                                                              
                                                                                                  
 encoder_conv_layer_3 (Conv2D)  (None, 32, 8, 128)   295040      ['encoder_bn_2[0][0]']           
                                                                                                  
 encoder_relu_3 (ReLU)          (None, 32, 8, 128)   0           ['encoder_conv_layer_3[0][0]']   
                                                                                                  
 encoder_bn_3 (BatchNormalizati  (None, 32, 8, 128)  512         ['encoder_relu_3[0][0]']         
 on)                                                                                              
                                                                                                  
 encoder_conv_layer_4 (Conv2D)  (None, 16, 4, 64)    73792       ['encoder_bn_3[0][0]']           
                                                                                                  
 encoder_relu_4 (ReLU)          (None, 16, 4, 64)    0           ['encoder_conv_layer_4[0][0]']   
                                                                                                  
 encoder_bn_4 (BatchNormalizati  (None, 16, 4, 64)   256         ['encoder_relu_4[0][0]']         
 on)                                                                                              
                                                                                                  
 encoder_conv_layer_5 (Conv2D)  (None, 8, 4, 32)     18464       ['encoder_bn_4[0][0]']           
                                                                                                  
 encoder_relu_5 (ReLU)          (None, 8, 4, 32)     0           ['encoder_conv_layer_5[0][0]']   
                                                                                                  
 encoder_bn_5 (BatchNormalizati  (None, 8, 4, 32)    128         ['encoder_relu_5[0][0]']         
 on)                                                                                              
                                                                                                  
 flatten (Flatten)              (None, 1024)         0           ['encoder_bn_5[0][0]']           
                                                                                                  
 mu (Dense)                     (None, 128)          131200      ['flatten[0][0]']                
                                                                                                  
 log_variance (Dense)           (None, 128)          131200      ['flatten[0][0]']                
                                                                                                  
 encoder_output (Lambda)        (None, 128)          0           ['mu[0][0]',                     
                                                                  'log_variance[0][0]']           
                                                                                                  
==================================================================================================
Total params: 1,838,688
Trainable params: 1,836,704
Non-trainable params: 1,984
__________________________________________________________________________________________________
Model: "decoder"
_________________________________________________________________
 Layer (type)                Output Shape              Param #   
=================================================================
 decoder_input (InputLayer)  [(None, 128)]             0         
                                                                 
 decoder_dense (Dense)       (None, 1024)              132096    
                                                                 
 reshape (Reshape)           (None, 8, 4, 32)          0         
                                                                 
 decoder_conv_transpose_laye  (None, 16, 4, 32)        9248      
 r_1 (Conv2DTranspose)                                           
                                                                 
 decoder_relu_1 (ReLU)       (None, 16, 4, 32)         0         
                                                                 
 decoder_bn_1 (BatchNormaliz  (None, 16, 4, 32)        128       
 ation)                                                          
                                                                 
 decoder_conv_transpose_laye  (None, 32, 8, 64)        18496     
 r_2 (Conv2DTranspose)                                           
                                                                 
 decoder_relu_2 (ReLU)       (None, 32, 8, 64)         0         
                                                                 
 decoder_bn_2 (BatchNormaliz  (None, 32, 8, 64)        256       
 ation)                                                          
                                                                 
 decoder_conv_transpose_laye  (None, 64, 16, 128)      73856     
 r_3 (Conv2DTranspose)                                           
                                                                 
 decoder_relu_3 (ReLU)       (None, 64, 16, 128)       0         
                                                                 
 decoder_bn_3 (BatchNormaliz  (None, 64, 16, 128)      512       
 ation)                                                          
                                                                 
 decoder_conv_transpose_laye  (None, 128, 32, 256)     295168    
 r_4 (Conv2DTranspose)                                           
                                                                 
 decoder_relu_4 (ReLU)       (None, 128, 32, 256)      0         
                                                                 
 decoder_bn_4 (BatchNormaliz  (None, 128, 32, 256)     1024      
 ation)                                                          
                                                                 
 decoder_conv_transpose_laye  (None, 256, 64, 1)       2305      
 r_5 (Conv2DTranspose)                                           
                                                                 
 sigmoid_layer (Activation)  (None, 256, 64, 1)        0         
                                                                 
=================================================================
Total params: 533,089
Trainable params: 532,129
Non-trainable params: 960
_________________________________________________________________
Model: "autoencoder"
_________________________________________________________________
 Layer (type)                Output Shape              Param #   
=================================================================
 encoder_input (InputLayer)  [(None, 256, 64, 1)]      0         
                                                                 
 encoder (Functional)        (None, 128)               1838688   
                                                                 
 decoder (Functional)        (None, 256, 64, 1)        533089    
                                                                 
=================================================================
Total params: 2,371,777
Trainable params: 2,368,833
Non-trainable params: 2,944
_________________________________________________________________
Train on 3000 samples
Epoch 1/2
   8/3000 [..............................] - ETA: 9:09 - loss: 230343.1250 - MeanSqu
…
